lane_segmentation/linear_classifier.pth (torch, 26613 bytes, 2 tensors)

weight f4 [3, 2048]
0.03269961 0.003903475 -0.0025418845 0.008573991 -0.022830717 0.038326517 0.020281166 0.03703046
0.0056733307 -0.03170183 -0.014588378 -0.015670732 -0.01845921 0.014377519 0.035228927 -0.00048696666
-0.006525093 -0.009112925 -0.007065053 -0.011255328 -0.022629136 -0.016865222 0.0019826335 -0.008135834
-0.0047425525 -0.028890677 -0.0037103524 0.027360518 0.015519361 -0.003726966 -0.009094 -0.024063893
-0.00072023587 -0.018331878 0.009880874 0.026716992 -0.018367972 0.0063068788 0.020395158 0.025810637
-0.021001242 0.008434109 0.0028056316 -0.002796029 -0.0115265725 0.0022885709 -0.005270968 0.0063924505
0.020511128 0.01214392 0.026510894 0.01037902 -0.009240869 -0.017866546 0.04297942 0.0027165783
0.0066248295 0.014552833 0.015707493 -0.03105781 0.048703067 0.02758448 0.052481357 0.03812888
0.039829094 0.009878975 -0.01541747 0.025935164 -0.027376974 -0.0017782142 0.024649585 0.017030224
-0.00730796 -0.006891678 0.006295172 -0.02171228 -0.026580278 0.0059904098 0.00023510502 -0.0015456456
-0.018707028 0.001907995 0.005420559 0.022324907 0.0013130388 0.020351326 -0.0010721664 -0.0049924785
0.017300488 0.053147245 0.042377446 0.0040420736 0.009662405 -0.015978312 -0.028143078 -0.021525837
0.012300538 0.00026512102 0.031648472 0.0005957557 0.0077656205 -0.009430219 -0.022382665 -0.0035284306
-0.034068156 -0.12154789 -0.003790575 0.05130416 -0.0036165416 -0.017444894 0.016597673 0.028068842
0.008348919 -0.010973695 0.011106867 0.03443347 -0.025378961 -0.014668663 0.0069084414 -0.0072760787
0.02068707 -0.03208207 -0.018525707 -0.0042293994 -0.007615779 -0.013191584 0.039058805 0.011498309
0.024254818 -0.010457896 -0.026541924 0.023489587 -0.004752927 0.0025009287 -0.012708784 -0.016016139
0.033424817 -0.021903573 -0.012839431 0.016395211 0.003221598 0.05907959 -0.023713993 0.010108802
-0.006503333 0.022089392 0.00033753028 -0.008516788 -0.019623611 -0.022222154 -0.014550564 0.015343697
-0.007979605 0.008798198 -0.017332187 0.004389807 0.0656525 0.023318898 0.041912507 -0.0113706365
-0.02426481 -0.02667239 -0.026335465 -0.018852372 -0.015330114 -0.015389001 -0.034673482 0.05854129
-0.020871565 -0.0176972 -0.009542331 -0.015932983 -0.017545495 -0.00092105195 -0.017562006 0.021436283
0.00037447605 -0.008701701 -0.009719675 0.013948484 -0.0029075022 -0.004994593 0.014052206 -0.021013925
0.0027339074 -0.031507637 0.007189633 -0.02030623 0.0033986692 0.017122429 0.009905526 0.004734134
-0.024707658 -0.01792326 -0.011941915 0.021187615 0.0016277579 0.00043694527 -0.0067386692 0.021326445
0.007018855 -0.035547055 -0.006167735 0.0005598737 -0.009300599 0.0006798789 0.009115591 0.004672838
-0.004393525 -0.019139681 0.011010978 -0.002343019 -0.013037768 0.014373512 0.00010743095 -0.010939162
-0.024158612 -0.02060728 0.0011634171 -0.024215389 0.003747843 -0.003267264 0.028549777 -0.0060996045
-0.01961999 0.032016777 0.018347379 0.015817493 0.028613463 -0.01736859 0.0979297 -0.00563658
-0.004301386 0.025180519 0.013771787 -0.017897654 0.017866151 0.007342393 -0.002297082 0.0010612732
-0.0037317576 -0.022228545 0.0021916365 0.005957396 0.029739577 -0.016644714 -0.0019890168 0.011663244
-0.0045728097 -0.021799525 0.038508408 0.058511887 0.0032153062 0.003432545 -0.010607123 -0.020291502
00000000: 07f0 053d 71d1 7f3b bf95 26bb ed79 0c3c
00000010: 7c07 bbbc 44fc 1c3d b024 a63c 40ad 173d
00000020: 59e7 b93b c7d9 01bd 1804 6fbc e85f 80bc
00000030: c537 97bc af8f 6b3c 354c 103d 8f4f ffb9
00000040: 73d0 d5bb 614e 15bc f681 e7bb 4468 38bc
00000050: bd60 b9bc ef28 8abc 12ef 013b 294c 05bc
00000060: 6a67 9bbb 24ac ecbc 6229 73bb 2a23 e03c
00000070: eb44 7e3c 1d40 74bb 00ff 14bc a421 c5bc
00000080: 36ce 3cba bc2c 96bc 64e3 213c 98dd da3c
00000090: 6e78 96bc efa9 ce3b bf13 a73c d470 d33c
000000a0: cc0a acbc 382f 0a3c b0de 373b 953d 37bb
000000b0: f3d9 3cbc d9fb 153b 16b8 acbb c377 d13b
000000c0: f406 a83c 4bf7 463c 602d d93c c40c 2a3c
000000d0: 0467 17bc dd5c 92bc 300b 303d 9f08 323b
000000e0: 1915 d93b 016f 6e3c 00ad 803c f36c febc
000000f0: de7c 473d d9f8 e13c b1f6 563d 072d 1c3d
00000100: d523 233d 6ddb 213c 8e99 7cbc fb75 d43c
00000110: ad45 e0bc f812 e9ba eded c93c f882 8b3c
00000120: 9d77 efbb 96d3 e1bb bb47 ce3b f4dd b1bc
00000130: e2be d9bc 334b c43b 8686 7639 4397 caba
00000140: 7b3f 99bc b015 fa3a f29e b13b b9e2 b63c
00000150: 451a ac3a d3b7 a63c ef87 8cba f297 a3bb
00000160: c1b9 8d3c edb0 593d f993 2d3d 5f73 843b
00000170: 104f 1e3c f3e4 82bc 508c e6bc f456 b0bc
00000180: 3288 493c f1ff 8a39 d4a1 013d 7d2c 1c3a
00000190: bf76 fe3b 3581 1abc da5b b7bc 3e3d 67bb
000001a0: 0d8b 0bbd 1aee f8bd 4c6b 78bb 5024 523d
000001b0: 8003 6dbb 98e8 8ebc d8f7 873c a1f0 e53c
000001c0: e8c9 083c 03cb 33bc 94f9 353c 1c0a 0d3d
000001d0: 8ae7 cfbc d554 70bc 3560 e23b 2c6c eebb
000001e0: ee77 a93c 7d68 03bd 39c3 97bc c696 8abb
000001f0: c98d f9bb 8321 58bc 20fc 1f3d 6763 3c3c
00000200: 0ab2 c63c 9857 2bbc 736e d9bc 3c6d c03c
00000210: 71be 9bbb 9fe6 233b 8138 50bc 4734 83bc
00000220: 76e8 083d 1f6f b3bc 7a5c 52bc 404f 863c
00000230: 7221 533b 71fd 713d d943 c2bc 639f 253c
00000240: e919 d5bb d0f4 b43c 8cf6 b039 ff89 0bbc
00000250: b2c1 a0bc 3c0b b6bc 7d65 6ebc 2164 7b3c
00000260: e4bc 02bc 5126 103c 3bfc 8dbc 5fd8 8f3b
00000270: d174 863d 4607 bf3c 73ac 2b3d e84b 3abc
00000280: ffc6 c6bc 0e80 dabc 79bd d7bc 4a70 9abc
00000290: 292b 7bbc 2622 7cbc c805 0ebd fec8 6f3d
000002a0: d8fa aabc b8f9 90bc 7057 1cbc e385 82bc
000002b0: 92bb 8fbc c072 71ba 32de 8fbc 259b af3c
000002c0: 5355 c439 9491 0ebc 463f 1fbc 2f88 643c
000002d0: cb8b 3ebb afa9 a3bb 393b 663c 6525 acbc
000002e0: 5b2b 333b 270e 01bd 0397 eb3b 4059 a6bc
000002f0: 35bc 5e3b 5644 8c3c ca4a 223c cb20 9b3b
00000300: b767 cabc cdd3 92bc 06a8 43bc a691 ad3c
00000310: 7e5a d53a cd15 e539 0ed0 dcbb ccb4 ae3c
00000320: 6cfe e53b ca99 11bd b61a cabb 7dc4 123a
00000330: 8a61 18bc e739 323a 8f59 153c 9b1e 993b
00000340: 8ff7 8fbb d2ca 9cbc 6467 343c 568d 19bb
00000350: 5d9c 55bc e17e 6b3c 8d4c e138 2c3a 33bc
00000360: 48e8 c5bc 99d0 a8bc cd7d 983a 5a5f c6bc
00000370: 5f9e 753b 981f 56bb 39e1 e93c 31df c7bb
00000380: 1aba a0bc 0624 033d 3e4d 963c b093 813c
00000390: c866 ea3c 9348 8ebc 5e8f c83d 0fb3 b8bb
000003a0: a4f2 8cbb 6047 ce3c 10a3 613c 1a9e 92bc
000003b0: 095c 923c 7598 f03b a48a 16bb 6b1a 8b3a
000003c0: 8190 74bb a318 b6bc 8fa1 0f3b 4236 c33b
000003d0: 6aa0 f33c 7f5a 88bc 2a5a 02bb 3117 3f3c
000003e0: 82d7 95bb eb94 b2bc feba 1d3d 29aa 6f3d
000003f0: e3b7 523b 8df4 603b 80c9 2dbc 5d3a a6bc

bias f4 [3]
0.019048378 0.009118904 -0.0072013093
00000000: 580b 9c3c 7567 153c f6f8 ebbb
